hackathon_ccr_data_analytics/notebooks/activity_detection.tflite (tflite, 249696 bytes, 25 tensors)

sequential_3/conv1d_4/BiasAdd/ReadVariableOp/resource f4 [50]
000000 70 ec 48 bc ca 95 e9 3d 2e 32 4b be 2e 65 e2 3c
       -0.012263402 0.11405523 -0.19843361 0.027636137
000010 05 61 0d 3e 9a 80 b4 3c 6d f3 00 be e3 a5 75 3d
       0.13806541 0.022033978 -0.1259286 0.059972655
000020 ec 9c 2e 3c 83 a8 28 be 6b d7 20 bd a4 b7 ab 3d
       0.01065753 -0.16470532 -0.03926794 0.08384636
000030 c4 42 08 be e5 9d c7 bc 9c f5 0a 3d d7 b8 dd bc
       -0.13306719 -0.024367282 0.033925638 -0.027065678
000040 51 9e dc 3b a4 0d df bd 3f bd 52 be 09 a0 2c bd
       0.00673274 -0.108912736 -0.20580004 -0.04214481
000050 e8 3e 9d 3d f0 36 11 be 3f 99 9a 3d 75 72 a8 3d
       0.07678014 -0.14181113 0.075487606 0.08224956
000060 be 71 28 bd a6 ea 98 3d 94 86 ff 3c d2 8b d2 3c
       -0.041124098 0.07466631 0.031192102 0.025701437
000070 b5 21 77 3d 30 5c 8e 3b b1 df 84 3c cc 6f 9c 3d
       0.06033488 0.0043444857 0.016219946 0.07638511
000080 8b c0 d4 ba 2c 9b 60 3d a6 ad e4 bc 6f e6 4b 3d
       -0.0016231699 0.054835483 -0.027914833 0.049780305
000090 7a 96 4c ba 18 70 e0 bb 9c 95 61 3d 6b de 5a 3d
       -0.0007804405 -0.0068493 0.05507432 0.05343477
0000a0 bc 23 85 bc c1 45 50 3d 60 5c b4 bd 83 01 89 3d
       -0.016252391 0.050847773 -0.08806682 0.066897415
0000b0 13 20 a1 3d 8b 39 cf bb 6e f7 f1 3d ef f2 b7 bd
       0.07867446 -0.0063239983 0.118147716 -0.08981883
0000c0 eb e6 bd bc aa 60 9b 3d
       -0.0231814 0.075867966

sequential_3/conv1d_5/BiasAdd/ReadVariableOp/resource f4 [50]
000000 c1 7c 40 bd e9 c6 94 bd 19 7d 3d 3c 6a e1 24 bd
       -0.046993975 -0.072645016 0.01156547 -0.040254034
000010 fd 3c b5 bd 77 9d a4 bd 38 87 09 bc 54 cb c5 bd
       -0.08849523 -0.080378465 -0.008394055 -0.096579224
000020 19 4f ee 3c 95 5c 84 bd 45 8a ac bd f2 c0 87 bd
       0.029090451 -0.06462971 -0.0842481 -0.06628598
000030 8c 0b 2e bc 51 e7 45 bd b7 5a e0 bb 18 50 84 bd
       -0.01062287 -0.048316304 -0.0068467516 -0.06460589
000040 d8 06 a9 bd 9c 94 97 3d f6 d7 8c 3c a4 b2 e3 bd
       -0.082532585 0.07401392 0.017192822 -0.11118057
000050 b6 18 dd bd 7a a7 2b bd 98 e2 d4 bc 22 8c 63 bc
       -0.10795729 -0.041907765 -0.025986955 -0.013888391
000060 e1 a0 16 3d 5d 7b 80 bc 75 bf 87 bd 0d d6 84 bd
       0.03677452 -0.015683824 -0.066283144 -0.064861394
000070 c6 3a 5f bd 2a ed 65 bc 77 a3 9a bc ef 3b ef bb
       -0.05449941 -0.014033595 -0.018876774 -0.007300846
000080 e1 cb cf bb 45 00 8a bd 3b 7a 1d bd c7 b7 85 bc
       -0.006341443 -0.06738333 -0.038446646 -0.016322983
000090 cb 3c 33 be 85 cf 41 3d 89 d5 db bd bb 52 49 bd
       -0.1750366 0.047317047 -0.10734088 -0.049151164
0000a0 f7 1a 11 bd 6d 3c e6 bc f7 e2 5f bd be 99 5c 3d
       -0.035426106 -0.028104985 -0.05465981 0.053857557
0000b0 64 ac 95 ba de c3 ca bd 45 36 5d bc 3a dd 19 be
       -0.0011419174 -0.0990064 -0.013501708 -0.15025797
0000c0 d7 b6 96 3d 4c 03 00 3d
       0.07359093 0.031253144

sequential_3/dense_2/BiasAdd/ReadVariableOp/resource f4 [3]
000000 ac a2 6d bb 80 56 0e 3d e1 12 d9 bc
       -0.003626029 0.03475046 -0.02649826

sequential_3/gru_3/gru_cell/BiasAdd/ReadVariableOp/resource f4 [192]
000000 ec 30 8a bc 7c e4 8d bd 90 49 fe 3c 88 89 34 bb
       -0.01686903 -0.069283456 0.031040937 -0.0027547795
000010 80 97 bf 3d 8e 71 99 3d 92 19 e4 3c 0f 7f 9e 3c
       0.09355068 0.07492362 0.027844224 0.019347696
000020 b8 b5 fa 3d 6b da 77 3d c3 64 d7 bd 9e de ab bd
       0.12241691 0.060511034 -0.10517266 -0.0839207
000030 0f 88 e4 3d 4c 7d 42 bd 24 c3 b7 3d a6 a2 ff bc
       0.111587636 -0.047482774 0.08972767 -0.031205487
000040 e0 0a 39 bd 26 f8 79 bd 1a d0 aa bd 06 1e 80 bd
       -0.045176387 -0.06102767 -0.083404735 -0.062557265
000050 ab e6 62 3d 3b ef 7d 3d df 65 d5 3d 64 20 3d 3c
       0.055395763 0.061995726 0.10419821 0.011543367
000060 f9 5b 01 3d cc eb f1 bc 5c 70 25 3d c1 06 e0 bc
       0.031581853 -0.029531382 0.040390357 -0.02734697
000070 4b 51 43 3d 80 df 0e be 65 28 61 3c a7 5a f7 bc
       0.04768495 -0.13952446 0.013742541 -0.030194594
000080 34 f4 83 bd 9e f0 ec 3d 97 bb cd 3b b4 93 98 bb
       -0.064430624 0.115693316 0.006278466 -0.0046562795
000090 76 d9 f2 3d b8 41 40 be 15 76 ac bd ab a0 a1 3d
       0.11857884 -0.1877507 -0.0842096 0.07891973
0000a0 96 ca 04 bd ae 91 d5 3d 46 2f bf ba 07 fb af 3d
       -0.032419764 0.10428177 -0.0014586232 0.085928015
0000b0 13 ee fe bd 72 95 23 3b da f2 3d bc 16 b2 fb bc
       -0.12447753 0.0024960903 -0.011593545 -0.030724566
0000c0 c8 2e be 3d 24 27 2f bc f2 a2 d0 bd 68 2a 86 3d
       0.092862666 -0.010690484 -0.10187329 0.06551057
0000d0 0e 33 01 be 80 d1 c4 bc f4 a3 32 3d 64 1f a0 3d
       -0.12617132 -0.024025679 0.04361339 0.07818487
0000e0 02 90 cf 3d 04 ec e5 3c e3 db 20 be 4d a3 8c 3d
       0.10134889 0.028066643 -0.1570888 0.06867085
0000f0 c0 a0 25 3d ab 43 0b bd e3 ed bc 3c 9c bb 99 bd
       0.040436506 -0.03400008 0.023062652 -0.07506487
000100 3d f2 b2 bd 7a 9f ea 3b 0f 93 46 bd 67 b9 53 bd
       -0.087376095 0.0071601244 -0.04848009 -0.051690485
000110 5f 10 7b 3d 9b c9 bb bc ff 46 1e bc 16 c8 2e bd
       0.06129491 -0.022923281 -0.0096604815 -0.042671286
000120 7b 5f 12 3d ca 04 2c bc 99 1c e7 bc 65 2d 88 bd
       0.03573559 -0.010499189 -0.028211879 -0.06649283
000130 43 28 66 bd 06 c6 f3 ba dc 40 c4 3b 53 f5 25 bc
       -0.05619074 -0.0018598444 0.005989177 -0.010129291
000140 12 1a a6 3c 61 ff 9d bd 34 9d 65 3d 27 6f 90 bd
       0.020276103 -0.07714725 0.056058124 -0.070524506
000150 78 15 b5 bc d2 b8 9a bd c2 44 be bd 2c 43 29 be
       -0.022104964 -0.07554783 -0.09290458 -0.1652953
000160 54 a0 59 3b 37 0d 4a bd 3d c9 d8 3c 85 1d 61 bd
       0.0033207135 -0.04932901 0.026463145 -0.054959793
000170 80 1f 86 bd 81 1a 94 bc cd ac 6d 3c 3d c0 e9 bc
       -0.06548977 -0.018079044 0.014506531 -0.02853405
000180 5b d9 41 bb c7 b6 cc 3c cb 95 04 bd 5f 35 cd bb
       -0.0029579017 0.024989499 -0.032369416 -0.006262466
000190 d8 40 d1 3c f9 e5 a0 3d 5a f6 a8 bc 83 58 a9 bd
       0.025543615 0.07856364 -0.020625282 -0.082688354
0001a0 e4 de 94 3c 2a f6 2a bd d5 a3 77 3c 1d 05 58 3d
       0.018172689 -0.041738667 0.015114744 0.05273925
0001b0 22 32 20 3d c8 c2 dd 3b 9e 96 47 3b e5 db a8 3c
       0.03911031 0.0067676045 0.0030454765 0.020612666
0001c0 06 a0 03 3e 03 a0 9b bd a6 7c 44 bd 8b 97 5d bc
       0.12854013 -0.07598879 -0.047970437 -0.0135249
0001d0 a4 9e e3 bc 9a b8 d4 bc 8c 48 34 bc 63 81 07 3d
       -0.027785607 -0.025966931 -0.011003625 0.033082377
0001e0 c8 1c 9d 3d 02 20 c5 bb 79 c2 7c 3b bf 31 63 bc
       0.07671505 -0.0060157785 0.0038568063 -0.013866841
0001f0 63 9a 18 3d 2c 5f 9d bb e2 07 56 3c c9 3a 2f 3d
       0.03725661 -0.004802605 0.013063403 0.04278067
000200 3c 46 e2 3c ca 00 05 bd 27 5b 15 bc fe 32 16 bd
       0.027621381 -0.032471456 -0.009115971 -0.036669724
000210 62 74 57 bd 74 69 3d 3d 85 e4 8a 3d 7a 68 52 3c
       -0.052601226 0.046243146 0.06781868 0.012842292
000220 dc 23 2c bd 8c 5d 82 bc 08 31 53 bc 22 65 8f 3c
       -0.042026386 -0.015913747 -0.012890108 0.017504279
000230 ce 9a 1d bc de 08 11 bc 08 32 a8 bc 87 cf a5 3b
       -0.009619428 -0.008852212 -0.02053167 0.0050601396
000240 49 5e 36 3d 19 fe 78 bc 10 0f 71 3c bc 27 c2 bc
       0.04452351 -0.0151973 0.014713064 -0.023700587
000250 a4 5f 80 bb e9 36 2a 3d 93 ed e7 bc dd ab 21 3d
       -0.0039176513 0.041556273 -0.028311526 0.039470542
000260 2b 51 5a 3c ac eb a8 3c 6b cd 24 bc 39 ce 3c 3d
       0.013325016 0.02062019 -0.010058741 0.046095107
000270 3f 7b 9a bd aa 14 55 3d ee b1 90 3a 40 f0 6b bc
       -0.075430386 0.05202166 0.0011039355 -0.014400542
000280 c0 20 87 bd 68 0b 03 bd 68 19 32 bd 02 a5 27 bd
       -0.065980434 -0.0319933 -0.04348126 -0.040928848
000290 89 88 0f bd c9 5c f2 3c 47 b7 71 3b e9 a9 67 3d
       -0.03504232 0.029585259 0.0036882923 0.056558523
0002a0 fe 50 02 b9 96 27 a3 bc 38 1b 77 3d 4c a1 8f bd
       -0.00012427938 -0.019916337 0.060328692 -0.07013187
0002b0 11 72 7c 3d dc 46 13 bd b7 9c 87 3d 20 4d 35 3c
       0.06163222 -0.03595625 0.06621688 0.011065751
0002c0 c0 a9 0a 3d 16 ae 34 bb 4d 25 ac 3c 0e 79 2a 3d
       0.033853292 -0.0027569584 0.02101388 0.041619353
0002d0 6d 78 1b 3d a9 f0 27 3d c2 ea 8a 3c 23 f7 22 bd
       0.037956644 0.041000996 0.016957644 -0.03978647
0002e0 cd 4c 2d bc 84 ee 40 bc db b3 37 3d ca 9b 2d 3b
       -0.010577393 -0.011775617 0.044849258 0.0026490563
0002f0 77 c7 b5 3c 38 10 35 bd 03 af f5 3c 21 e0 16 3d
       0.022189839 -0.04420492 0.029990679 0.03683484

sequential_3/batch_normalization_3/batchnorm/mul f4 [50]
000000 af af d0 40 16 2c c6 40 af 1e 92 41 5f e0 8e 40
       6.5214458 6.1928816 18.264982 4.464889
000010 21 4a d6 40 07 26 a9 40 2c c1 2f 41 b1 de 74 40
       6.696549 5.285892 10.984661 3.826092
000020 ab ac 8f 40 c7 ad 0b 41 4c 0f 0c 41 01 b1 d4 40
       4.4898276 8.729926 8.753735 6.646607
000030 2c 73 ab 41 61 32 bb 40 8f 08 e7 40 26 ee 9a 40
       21.431236 5.8499 7.2197948 4.841571
000040 c9 32 bd 40 d6 ac 7d 41 a6 37 85 41 76 c7 97 40
       5.9124494 15.854696 16.652172 4.7430983
000050 fb d5 08 41 f9 07 69 41 5e 46 cf 40 3f fa e0 40
       8.552241 14.564446 6.4773397 7.0305476
000060 8b c5 5c 40 1e 3a c2 40 b3 21 dd 40 a5 84 99 40
       3.449557 6.0695944 6.9103637 4.797442
000070 d4 74 ea 40 fe 1f e3 40 c0 b0 5d 40 a4 1e 74 40
       7.3267612 7.0976553 3.463913 3.8143702
000080 45 c7 c9 40 33 10 52 40 b2 ef bb 40 4a 92 20 41
       6.305575 3.2822387 5.8730097 10.035715
000090 51 9c 99 40 6e d2 f3 40 76 b7 af 40 9a dd ac 40
       4.8003316 7.619437 5.491145 5.402051
0000a0 da 06 d8 40 65 e4 96 40 8e 77 35 41 91 fe c1 40
       6.7508364 4.71538 11.341688 6.062325
0000b0 30 eb ea 40 97 da ba 40 5b 72 de 40 c1 d5 5b 41
       7.3412094 5.8391833 6.9514594 13.739686
0000c0 9a 01 5a 40 83 ec bb 40
       3.4063478 5.872621

sequential_3/batch_normalization_3/batchnorm/sub f4 [50]
000000 af 14 f7 be e7 b5 86 bf 00 0d d6 bd 6d 20 f3 be
       -0.48257968 -1.0524262 -0.10451698 -0.47485676
000010 00 96 a7 bf ca ff 0d bf 78 c4 2d be 6a db 2f bf
       -1.3092651 -0.5546843 -0.16969478 -0.68694174
000020 5c 20 fe be 4e 60 4c be 0a e3 89 be 04 b2 70 bf
       -0.49634063 -0.19958612 -0.2693103 -0.9402163
000030 a8 31 05 be b3 79 f2 be 7a ec 1f bf 11 bc ea be
       -0.13007224 -0.47358474 -0.6247021 -0.45846608
000040 e7 4d ec be 87 66 80 be f0 69 43 be 5e 29 e8 be
       -0.46153185 -0.25078222 -0.1908338 -0.4534406
000050 e6 21 85 bf 62 dd 8d bd 7e 3e 44 bf e3 d6 66 bf
       -1.040097 -0.06926991 -0.76657856 -0.9017164
000060 05 5b e1 be da 02 22 bf 37 50 1f bf 7b a5 06 bf
       -0.44014755 -0.632856 -0.62231773 -0.52596253
000070 7c 96 40 bf 25 e5 f0 be 5a ba f0 be b4 5c 32 bf
       -0.7522962 -0.47049823 -0.47017175 -0.69672704
000080 b7 4e da be dd c4 21 bf 5f 65 b2 be be d8 5f bf
       -0.4263818 -0.63191015 -0.34842965 -0.874401
000090 69 ba d8 be f6 47 c7 be 1e d2 59 bf 0d 27 31 bf
       -0.4232972 -0.3892209 -0.8508624 -0.6920021
0000a0 d7 0b a3 be 0a b9 21 bf 30 58 60 bd d2 37 47 bf
       -0.3184497 -0.6317297 -0.054771602 -0.7781955
0000b0 be 7a 65 bf b2 65 0a bf e3 92 94 bf ea 96 a8 bd
       -0.89640415 -0.54061425 -1.1607326 -0.082319096
0000c0 43 e4 f3 be b9 bc 57 bf
       -0.47635087 -0.8427234

sequential_3/batch_normalization_4/batchnorm/mul f4 [50]
000000 63 6e 9b 3f 56 d7 c5 3e 39 45 7e 3f 8a 94 82 3f
       1.2143062 0.3864085 0.99324375 1.020158
000010 e9 f0 ee 3f 84 9e c1 3f bf 94 9a 3f 60 d9 a8 3f
       1.866727 1.51265 1.2076644 1.3191338
000020 99 4e 99 3f 54 f0 bd 3f ba d5 95 3f 77 68 a6 3f
       1.1977111 1.4838967 1.1705849 1.300063
000030 d4 fe 35 3f 8b a2 2b 3f 98 cd 2a 3f be f4 d5 3f
       0.7109196 0.67044896 0.6671996 1.6715314
000040 46 8d b9 3e 81 b9 b7 3f 3e 59 7a 3f 8b 18 03 3f
       0.36240596 1.4353486 0.9779242 0.51209325
000050 89 84 df 3f 0a 18 c1 3e 9b 9e 9d 3f 21 7b 61 3f
       1.7462322 0.37713653 1.2314028 0.88078505
000060 8c 8b 93 3f fa 3e 51 3f c4 8b bd 3f 40 40 b4 3f
       1.1526961 0.8173672 1.4808278 1.4082108
000070 2a 1d 94 3f d4 48 c5 3f 40 b2 7a 3f 1e 3b 94 3f
       1.15714 1.541285 0.9792824 1.1580541
000080 44 b2 8a 3f 44 a1 c1 3e 29 fb 7b 3f 59 50 86 3f
       1.0835652 0.37818348 0.98430115 1.049327
000090 a9 99 35 3f 5f 03 5a 3f cc a9 01 3f 0d 9b 88 3f
       0.7093759 0.85161394 0.50649714 1.0672318
0000a0 33 aa e2 3f 2b 3e 32 3f 81 a4 25 3f 78 38 88 3f
       1.7708191 0.6962611 0.6470414 1.0642233
0000b0 35 d6 84 3f 7b 73 2f 3f 35 80 81 3f 49 b0 49 3f
       1.0377871 0.68535584 1.0117251 0.78784615
0000c0 56 09 ad 3f ad 00 42 3f
       1.3518474 0.7578228

sequential_3/batch_normalization_4/batchnorm/sub f4 [50]
000000 23 a0 56 bf a5 fc 06 bf 88 a0 a4 bf 5b a6 8d bf
       -0.838381 -0.52729255 -1.286149 -1.1066393
000010 34 0e 8f bf 05 53 24 bf 14 bf 85 bf b8 34 0b bf
       -1.117621 -0.6418918 -1.0448937 -0.5437732
000020 4b 43 79 bf 32 b1 bc bf 33 2c 5d bf 44 fb 80 bf
       -0.97368306 -1.4741576 -0.8639557 -1.007668
000030 44 6c f9 be 1a ea 17 bf 64 36 34 bf c0 07 46 bf
       -0.48715413 -0.59341586 -0.70395494 -0.77355576
000040 9a 4a e2 be 03 69 8e bf 8a 37 b1 bf 55 5c fc be
       -0.4419754 -1.1125797 -1.3845074 -0.49289194
000050 94 b7 93 bf 27 f1 fd be 68 5b 79 bf 08 a2 76 bf
       -1.1540399 -0.49598047 -0.974051 -0.9634099
000060 56 45 a8 bf 25 e0 09 bf 86 fc 74 bf 13 f8 64 bf
       -1.314616 -0.5385764 -0.9569782 -0.8944103
000070 1d 7c 9e bf 6f ab 75 bf 98 f5 5d bf c2 8a aa bf
       -1.2381626 -0.9596471 -0.8670287 -1.3323596
000080 60 d2 49 bf c4 d2 0f bf 37 32 7b bf d0 16 64 bf
       -0.7883663 -0.5618098 -0.98123497 -0.8909731
000090 af a8 f3 be a4 2a b2 bf 6a a2 ed be f8 2e 1f bf
       -0.47589633 -1.3919263 -0.46412975 -0.62181044
0000a0 c0 39 3f bf 2b f8 fe be c1 10 e5 be a1 27 0f bf
       -0.74697495 -0.49798712 -0.44739345 -0.55919844
0000b0 13 93 ab bf 15 99 1b bf 08 64 a2 bf a7 cd ef be
       -1.3404258 -0.6078046 -1.2686777 -0.46836588
0000c0 b9 75 65 bf ea 78 20 bf
       -0.89632756 -0.626845

sequential_3/dense_2/MatMul f4 [3, 64]
000000 ca 0a 32 3e fe 69 86 3b 73 f9 09 3e 37 97 f6 bd
       0.17386928 0.0041019907 0.13474064 -0.12040561
000010 3e 78 07 3e 71 9f c5 bd 9b 1e 7f 3d e9 a6 e4 bc
       0.13229463 -0.09649552 0.062285047 -0.02791162
000020 ad 62 51 bc f8 39 38 3d f5 9f 19 be b0 e0 b0 bd
       -0.012779874 0.04497716 -0.15002425 -0.08636606
000030 8d 98 cd 3d cc 26 f9 bd 1b 54 11 3e 20 54 ae bd
       0.100388624 -0.12165603 0.1419224 -0.08512139
000040 4c 0e ff bd f1 ca 11 3e 45 83 4a 3d 29 e9 80 bd
       -0.12453899 0.14237572 0.049441595 -0.06294472
000050 21 31 dd bd f5 63 b0 3d ef c6 b8 3d d5 a4 ca 3d
       -0.10800386 0.08612815 0.090223186 0.098947205
000060 30 2e c6 bd bd 40 f4 bb 31 66 4f 3d ea ae 01 be
       -0.09676778 -0.0074540065 0.050634567 -0.1266438
000070 cb 9a 04 be 5a 61 ef bd 55 a4 8d 3d 3c 07 e2 3c
       -0.12949674 -0.1168849 0.069161095 0.02759134
000080 6e 74 ed bd bc 0c 0b 3d 33 f0 03 3e f7 5a a8 bd
       -0.11594473 0.03394769 0.12884597 -0.08220475
000090 9e 7e ed bd 24 03 98 bd 40 a3 c7 bc 0b bb f7 bd
       -0.11596416 -0.07422474 -0.024369836 -0.120962225
0000a0 a5 59 64 3d 12 fb ce 3d 14 70 96 3d 08 79 fd 3d
       0.055749554 0.101064816 0.07345596 0.123766005
0000b0 88 0f b2 3d ed 15 fd 3d 48 d7 2b bd 21 88 83 3d
       0.086943686 0.12357698 -0.041953355 0.06422449
0000c0 3f 51 1c 3e 5e b0 c3 bd 3f bd 07 3d e5 d4 f7 bd
       0.15265368 -0.09555124 0.033139464 -0.12101153
0000d0 7b 47 fd 3d 2d 20 3f 3d 03 2e f5 bd c6 2a 59 3d
       0.123671494 0.046661545 -0.11971667 0.053019308
0000e0 56 9a 9c bd 71 9b 63 bd d1 39 7d bd 29 5f 58 3e
       -0.07646625 -0.055568162 -0.061822716 0.2113005
0000f0 c0 ab b2 bd 6c 47 94 bd 4a a4 ba 3d 36 cf 6d bd
       -0.08724165 -0.07240185 0.09113367 -0.05805894
000100 81 f1 b3 bd 77 08 2e be 03 82 ee bd 87 cc 74 3d
       -0.087862976 -0.16995417 -0.116458915 0.059765365
000110 8f 69 a0 bd 1e 4e 32 3e c7 a3 8a 3d a6 10 a7 bd
       -0.07832634 0.17412612 0.06769519 -0.08157472
000120 2a 90 69 bd 4c db d2 bd 8e 35 5f 3d 19 41 db 3d
       -0.05702225 -0.10295734 0.054494433 0.10705776
000130 3f f0 e9 bd 24 fb ba 3c f4 99 ad bd 69 6b ba bd
       -0.114227764 0.022824831 -0.0847663 -0.09102518
000140 af 24 8b bd 3c aa dd bc 64 61 6b 3d 87 db c7 3d
       -0.06794106 -0.027058713 0.057465926 0.097586684
000150 eb f2 93 bd 07 8a 89 bd 08 a8 99 bd a7 55 78 bd
       -0.07224067 -0.0671578 -0.075027525 -0.06062856
000160 2f c8 f3 3d 54 a3 0e 3e e0 be d1 3d 51 f0 27 3d
       0.11903416 0.13929492 0.10241485 0.041000668
000170 32 20 af 3d 72 0a 0d 3e 0c 8b d0 3c 9f e4 63 3d
       0.08551063 0.13773516 0.025456928 0.055637952
000180 18 5f 3d bc 0c 97 17 be d9 4b ab bc 52 e5 13 3e
       -0.011558317 -0.14803714 -0.02091019 0.14442948
000190 c3 3b 0b bd 77 e2 98 3d be d7 8b 3d 73 67 e8 3c
       -0.03399254 0.0746507 0.06828259 0.028369641
0001a0 83 d5 47 3d 10 9a 72 3d 1a b5 9f bd c5 f7 f2 bd
       0.048787605 0.059228957 -0.07798214 -0.118636645
0001b0 18 2c 05 be e0 7f 9a bd 93 f1 e9 3d 13 28 0c bd
       -0.13005102 -0.075439215 0.1142303 -0.034217905
0001c0 47 86 a2 bc b6 c5 da bb 7c 96 b2 bd f2 2e 2d 3d
       -0.019839419 -0.006676401 -0.08720109 0.0422811
0001d0 c6 23 01 be 0a 38 23 be 25 58 b1 3d 70 4f b6 bd
       -0.12611303 -0.15939346 0.0865939 -0.0890187
0001e0 67 1f 25 3d 94 f5 94 bd 63 19 a7 3d 03 b6 f9 bc
       0.04031315 -0.07273403 0.08159139 -0.030482298
0001f0 f5 15 d5 3d 95 97 a2 3d d8 4d f0 3d f4 f0 a3 bc
       0.104045786 0.07939068 0.117335975 -0.020012356
000200 8e c9 ca ba db 26 32 3e f6 45 6a bd 56 0a 1e 3d
       -0.0015471445 0.17397635 -0.057195626 0.038584076
000210 b0 0a 3e bc 7e 09 01 be 21 3e 3c be b2 16 0f 3e
       -0.011599228 -0.12601277 -0.18383075 0.13973501
000220 e8 e7 c4 3d 85 52 b3 3d e8 d1 a7 3d 1e 3f d6 3c
       0.09614545 0.08755974 0.08194333 0.026153143
000230 e2 1c e6 3d 01 12 94 3d 67 83 8a bd 8e ba 45 3e
       0.11235978 0.072299965 -0.06763344 0.19309446
000240 3b c4 0a 3e 47 20 6b bd d8 c9 31 be 6d c4 26 bd
       0.13551418 -0.05740383 -0.17362154 -0.04071467
000250 26 be 98 3d b0 25 49 bd b6 72 3a bd d3 cb da bd
       0.07458143 -0.049108207 -0.045519553 -0.10683408
000260 ab ed 33 bd 1b da c2 bd 2e bc 00 be da 11 a4 3d
       -0.04392783 -0.095142566 -0.12571785 0.080112174
000270 d3 12 e7 3c 7c 85 81 3a 67 83 06 be 6a 0c 4a be
       0.028207218 0.00098817 -0.13136064 -0.19731298
000280 69 fb fa 3d 5d 17 05 3e 09 5f ed bd d0 ae 32 bd
       0.12254984 0.12997194 -0.11590392 -0.043623745
000290 94 0c cf 3d c6 ed a0 3d 31 50 27 be 4e 3e d4 3d
       0.10109821 0.07857852 -0.16339184 0.10363446
0002a0 50 62 20 be 66 e0 1c be f5 53 72 bd 4f a7 b6 bb
       -0.15662503 -0.15319976 -0.0591621 -0.005574144
0002b0 2b ec bc 3c 1b 5c 8a 3b b4 90 47 3d 9c a1 0f 3d
       0.023061832 0.0042224056 0.048721984 0.035066232
0002c0 a2 da 09 3c a8 12 d8 3d 75 02 41 3d ee 7a 60 3d
       0.0084139425 0.105504334 0.047121484 0.054804735
0002d0 de e2 aa 3c 36 2d 0e 3e c4 3a 10 bd c9 f4 f0 bc
       0.020860132 0.13884434 -0.035212293 -0.029413598
0002e0 20 03 ee 3d af e6 28 3e bb 99 41 bc 8c 8e 29 3d
       0.1162169 0.16494249 -0.011816437 0.04139571
0002f0 06 56 80 3c 93 a2 98 bc 64 26 0c be 90 3d 98 3d
       0.01566602 -0.018632209 -0.1368652 0.07433617

sequential_3/conv1d_4/conv1d f4 [50, 1, 3, 3]
000000 88 f8 3f be 51 88 92 3d de 3e ba bd de 57 1f be
       -0.18747151 0.071549065 -0.09094022 -0.15560862
000010 2e 25 05 be 5e 8c a5 bd aa 3d 5e be 84 41 3a be
       -0.13002464 -0.080834135 -0.2170321 -0.18189055
000020 17 93 12 bd 2e dc 11 3e 9a ec 0e be 2f 0a 6c bd
       -0.035784807 0.14244148 -0.13957444 -0.0576269
000030 f6 b5 20 be 65 2a 7b be d7 ab 99 bd 2a 28 ba 3d
       -0.15694413 -0.24527891 -0.07503479 0.09089692
000040 6e cc cd bd 24 f4 6b 3d 0c 8d ba bc 3f 08 b3 bc
       -0.100487575 0.057605878 -0.022772335 -0.021854518
000050 65 4f 33 bd b8 db c0 3d 4b 02 2c be b5 e9 de bd
       -0.04377689 0.09416908 -0.1679775 -0.1088442
000060 08 0c 36 be e0 17 da bd ad ef cd 3b 8f d2 2d 3d
       -0.17778027 -0.10649085 0.006284675 0.042437132
000070 be 71 bf 3d 5e 94 62 bc a7 6f 06 3d 04 b7 e0 3c
       0.093478665 -0.013829319 0.032821324 0.027431019
000080 bd a6 aa bd 5f b4 00 bb 37 15 8d 3e 97 e8 8b 3d
       -0.08332584 -0.001963876 0.27555248 0.06831472
000090 98 04 ad bd 30 55 24 3e eb dd 0b 3e d2 30 27 3e
       -0.08448142 0.16048121 0.13658874 0.16327217
0000a0 ae 46 df bd 97 c5 db bd 69 b1 46 3c 19 6c 5d be
       -0.10902153 -0.10731047 0.012127259 -0.21623267
0000b0 cf 11 39 be 73 5d 27 3c 07 48 42 bd 01 2a 11 3e
       -0.180732 0.010215151 -0.047431972 0.1417618
0000c0 f1 25 10 3d 02 49 2f 3e c6 d6 a8 3c 70 c5 5e 3e
       0.035192434 0.17117694 0.020610224 0.21755004
0000d0 f8 a3 6e 3c 1c e1 8f be 81 13 3a 3d 54 c6 2a be
       0.01456546 -0.28101432 0.045428757 -0.16677219
0000e0 42 d8 9d bd 80 ee 04 bd dd 65 28 be 89 28 32 bd
       -0.077072635 -0.032454014 -0.16445108 -0.04349569
0000f0 2e 70 0c be 3a 34 34 3e 74 c8 83 3d 72 66 1a 3d
       -0.13714668 0.17598048 0.06434718 0.037695356
000100 2c e6 c4 3d 22 c4 4f 3b e6 95 f8 3d ee 23 4f 3e
       0.09614214 0.0031702598 0.12137966 0.2022855
000110 ab 90 36 3d 1f 9d cc bd be 97 62 3e 0e ae 73 bd
       0.04457156 -0.09990906 0.22128198 -0.059492163
000120 18 49 f8 bd ae 0f 2a 3d 36 5b 00 3e de d8 5d bd
       -0.121233165 0.04151886 0.12534794 -0.0541619
000130 1d e2 70 bd cf a3 44 3e 77 a0 70 be 1f 50 13 3e
       -0.05880939 0.19203113 -0.23498712 0.14386033
000140 c8 4e 32 3d 02 4d e6 3c e9 46 ff 3d 5a 4d 93 bd
       0.043532163 0.028112892 0.12464697 -0.07192488
000150 bd dd 53 3e a2 8b 32 be 61 bc a0 3d 59 c7 e0 3d
       0.20690055 -0.17436078 0.078484304 0.109755225
000160 30 cd 5d be 4a e0 0c 3c 4e 07 a8 bd 0f 18 d5 bd
       -0.21660304 0.008598397 -0.08204518 -0.104049794
000170 a5 38 05 be 2e 64 f8 3d e8 d2 ff bd c6 a7 84 be
       -0.1300989 0.12128483 -0.12491399 -0.2590925
000180 86 b6 ec bd c8 61 58 bd 19 c1 9f 3d fd a7 d1 3c
       -0.11558251 -0.052827626 0.07800502 0.025592798
000190 f0 cc 36 3e cb 75 b6 3c d1 2a 32 bd 94 f3 b4 bd
       0.17851615 0.022272965 -0.043497864 -0.08835521
0001a0 96 3d e0 bd d5 54 52 3e 93 56 25 be b4 f4 2d be
       -0.109492466 0.20540173 -0.16146307 -0.16987878
0001b0 e5 a2 62 be 4a 19 ce bd 83 0e cd bc 0a a4 ed 3d
       -0.22132452 -0.10063417 -0.025031334 0.116035536
0001c0 90 b6 34 bd fb 4d 6b bd 23 31 a0 bd bc c9 77 bd
       -0.044119418 -0.057447415 -0.07821872 -0.060495123
0001d0 29 28 dc bc dd 20 77 3d 64 11 3b be cd 06 78 bc
       -0.026874619 0.060334075 -0.18268353 -0.01513834
0001e0 c1 9a 00 3d 24 8f 09 be ff 64 2d 3e 61 3e 53 3d
       0.031397585 -0.1343351 0.16933058 0.05157316
0001f0 a1 24 85 3e e5 1f 0a 3e 04 83 92 3d d5 f5 44 3d
       0.26004508 0.1348873 0.071538955 0.048086006
000200 ca c9 37 bd 1a 0e d2 bd b0 4e 39 bd 69 a4 17 3d
       -0.044870175 -0.10256596 -0.045241058 0.037022028
000210 c4 b2 e1 3d d4 25 4d 3e 1a e1 33 bd 46 e0 cf 3d
       0.11020425 0.20033962 -0.043915845 0.10150199
000220 36 ee 56 be 76 36 3e bd 4f 80 24 3e be 80 a9 bc
       -0.20989308 -0.046438657 0.16064571 -0.020691272
000230 06 16 2b be 2a cb 6d 3e 9b 43 5f 3e fd b1 42 3d
       -0.1670762 0.23222032 0.21803133 0.047533024
000240 3f c6 05 3d ec ce be bd d7 1b 36 be 19 8a d7 3d
       0.032659765 -0.09316811 -0.17784058 0.10524387
000250 c7 96 89 be 06 78 ef bd 25 8b 26 3c 26 78 1b 3a
       -0.26872846 -0.116928145 0.010165011 0.0005930684
000260 a9 2c 51 be fa 87 41 3e a0 36 23 bd e3 3e b9 bc
       -0.20427193 0.18899527 -0.039847016 -0.022612995
000270 43 3b ac bd e2 b6 a6 3c fa e9 9f bd a9 c0 79 bd
       -0.08409741 0.020350877 -0.07808299 -0.06097475
000280 ba f2 3e be c4 ce 2c bd 3e 20 1b bc 36 09 2c 3d
       -0.1864728 -0.042189375 -0.009468136 0.04200097
000290 19 0e 33 3d f9 03 a6 3d dd cd 95 3d 03 b8 ac 3d
       0.043714616 0.081062265 0.07314656 0.08433535
0002a0 a6 47 5d be 1d ab e6 3c 19 21 4b 3d 09 82 e4 bd
       -0.21609363 0.028157765 0.04959211 -0.11157615
0002b0 c7 52 5a bb ac a4 a9 3d eb ce 10 3e 14 0b a4 3d
       -0.00333135 0.08283362 0.14141433 0.080099255
0002c0 a1 a5 03 3e 86 e1 b3 3c 2b c3 80 3e 31 70 fe 3d
       0.12856151 0.021958124 0.251489 0.124237426
0002d0 e7 da b2 bd bb 4f 8d be d2 ee b8 3d 37 8c 0e 3d
       -0.087331586 -0.27599892 0.09029926 0.034801688
0002e0 9a a5 31 3e f2 62 12 3d 36 c4 da 3d e8 6c 09 be
       0.17348328 0.035738893 0.106819555 -0.1342045
0002f0 a0 20 33 be 59 79 00 3e 68 84 0a 3d b4 02 6c 3c
       -0.17492914 0.1254629 0.03381768 0.014404941
000300 ee 70 aa bd 4f c0 3d 3d 9b cb b7 3b df 82 d2 bc
       -0.08322321 0.046325978 0.0056089885 -0.02569717
000310 84 b4 e2 3d bf 39 bd bc 50 ce a1 3d c9 3a 24 3e
       0.11069587 -0.023098825 0.07900679 0.1603805
000320 51 ba 62 be 5d cd b2 bd 1c 7f a4 bd 43 9c 93 bd
       -0.22141387 -0.08730576 -0.08032057 -0.07207539
000330 a2 ad fc 3d 7c e3 59 bc d6 45 89 bd d8 dd 26 be
       0.12337805 -0.013298865 -0.06702773 -0.16295564
000340 27 fb 3b be d7 a4 b3 3c 90 94 e8 3d 96 a8 e0 bd
       -0.18357526 0.021929188 0.11356461 -0.10969655
000350 2f 72 6e 3d 07 c1 7a bd 30 bb 35 bd 81 a8 99 3d
       0.058214363 -0.06121924 -0.04436797 0.07502843
000360 96 87 5f bd eb 3b 9f 3e bd c3 d2 3d bf a6 02 3e
       -0.054572664 0.311004 0.1029124 0.12758921
000370 54 f9 27 3e 2e 97 0c be 82 86 b2 bd fa 4b ed 3d
       0.16403705 -0.13729545 -0.087170616 0.11586757
000380 c9 0a 88 3d 2a ec dc bd 8b 3a 60 be 01 05 c2 bd
       0.06642682 -0.10787232 -0.21897332 -0.09473611
000390 31 d0 39 bc e6 a5 68 3d 0b 37 a6 bd 17 a8 61 3e
       -0.011341141 0.056798838 -0.08115967 0.22036777
0003a0 c2 c6 4a be 6a 90 17 be 93 b1 7e be 9f 22 ba bd
       -0.19802383 -0.14801183 -0.24872427 -0.09088635
0003b0 44 80 0d 3d 97 12 85 be 96 8a b9 3b c0 7f d9 3d
       0.03454615 -0.25990745 0.0056622727 0.106200695
0003c0 aa d6 5b 3d 86 8f 7f bc 08 72 a4 bd cb 6c 17 3e
       0.053671516 -0.0155981835 -0.08029562 0.14787595
0003d0 8d 8c 86 bd 6d 02 82 be a8 c5 21 be 76 46 4a 3e
       -0.06569777 -0.25392476 -0.15798056 0.19753441
0003e0 11 cf e4 3c d4 12 b9 bd 78 1d 0b 3e 73 67 a8 bd
       0.027930768 -0.09036794 0.1358546 -0.082228564
0003f0 26 44 dd 3d a9 66 8a bc 7f 0e 9b bb 00 04 dc bd
       0.10804014 -0.016894655 -0.0047319527 -0.107429504

sequential_3/conv1d_5/conv1d f4 [50]
000000 00 00 00 00 00 00 00 00 00 00 00 00 00 00 00 00
       0.0 0.0 0.0 0.0
000010 00 00 00 00 00 00 00 00 00 00 00 00 00 00 00 00
       0.0 0.0 0.0 0.0
000020 00 00 00 00 00 00 00 00 00 00 00 00 00 00 00 00
       0.0 0.0 0.0 0.0
000030 00 00 00 00 00 00 00 00 00 00 00 00 00 00 00 00
       0.0 0.0 0.0 0.0
000040 00 00 00 00 00 00 00 00 00 00 00 00 00 00 00 00
       0.0 0.0 0.0 0.0
000050 00 00 00 00 00 00 00 00 00 00 00 00 00 00 00 00
       0.0 0.0 0.0 0.0
000060 00 00 00 00 00 00 00 00 00 00 00 00 00 00 00 00
       0.0 0.0 0.0 0.0
000070 00 00 00 00 00 00 00 00 00 00 00 00 00 00 00 00
       0.0 0.0 0.0 0.0
000080 00 00 00 00 00 00 00 00 00 00 00 00 00 00 00 00
       0.0 0.0 0.0 0.0
000090 00 00 00 00 00 00 00 00 00 00 00 00 00 00 00 00
       0.0 0.0 0.0 0.0
0000a0 00 00 00 00 00 00 00 00 00 00 00 00 00 00 00 00
       0.0 0.0 0.0 0.0
0000b0 00 00 00 00 00 00 00 00 00 00 00 00 00 00 00 00
       0.0 0.0 0.0 0.0
0000c0 00 00 00 00 00 00 00 00
       0.0 0.0

sequential_3/conv1d_5/conv1d1 f4 [50, 1, 3, 50]
000000 ed 1b 4c 3d 28 7e 17 3d 58 90 e6 3d e3 6c 84 bd
       0.04983132 0.036985546 0.11258 -0.06466081
000010 34 ac 9d 3d dc 67 8d bd 1a 71 0d 3c f5 24 07 be
       0.07698861 -0.06904575 0.008632923 -0.13197692
000020 27 26 05 3e e9 9d 12 be 78 bf 1f 3d d7 b4 00 be
       0.13002835 -0.1431805 0.03900096 -0.12568985
000030 fa 7f b5 3d 6d 3f 6f 3d 4d 64 ae bc 69 50 91 bc
       0.088623 0.058410097 -0.021288062 -0.017738538
000040 04 27 2c 3d de 1c d1 3d d7 2d 59 3a f2 f1 1b 3e
       0.042029396 0.10210584 0.0008284724 0.15229014
000050 0f 84 51 3d 55 68 cb 3d d2 ae 24 3d 30 54 56 3c
       0.05115133 0.09932009 0.040205784 0.013081595
000060 87 ce 31 be 05 62 1c bd 67 28 1e 3e 5d 3b 3e bd
       -0.1736394 -0.038179416 0.154451 -0.046443332
000070 37 d5 71 3c 89 25 ea 3c 93 84 f5 bc 3b 5e 8c bc
       0.014760307 0.028582351 -0.029970443 -0.017134776
000080 94 59 88 3c 39 de cb bd 9a d4 0d be 0f 80 68 bd
       0.016644277 -0.09954495 -0.13850632 -0.05676275
000090 89 d2 1b bd ec 65 90 bb bb ae 4b 3c 35 f8 2e be
       -0.03804258 -0.0044066813 0.012431796 -0.17086871
0000a0 06 51 52 bd bb f4 28 be 92 7f 40 bd 3c 12 7d 3d
       -0.0513468 -0.16499607 -0.04699666 0.061784968
0000b0 53 97 fc bd 55 fd 1c bd 75 86 81 bd 48 66 38 3c
       -0.1233355 -0.038327534 -0.06324474 0.0112548545
0000c0 ea 94 4a be c1 c5 b3 3a 1b f7 3d 3e 56 3e 24 3d
       -0.19783369 0.0013715551 0.18551295 0.04009851
0000d0 e2 3e 5d 3d 12 e0 ec 3d 79 a8 f3 3d c2 e3 cf bd
       0.054015048 0.115661755 0.11897368 -0.10150863
0000e0 3c 2b 3a bd 7b 05 b2 3b cd e0 19 3e 49 0b 90 3d
       -0.045451388 0.005432782 0.15027161 0.070334025
0000f0 37 44 dc bd 0c 78 a2 bd 67 54 31 3e 95 f1 2a bd
       -0.107551984 -0.079330534 0.17317353 -0.041734297
000100 1e 63 f3 bc 9c 2d 73 bd 52 2b c6 3c b9 9a 6a bd
       -0.029710349 -0.05936967 0.024190579 -0.05727646
000110 10 e9 c5 bc f8 be 37 bd 8d 92 f3 3d 2c 96 1a bd
       -0.024158984 -0.044859856 0.11893187 -0.03774087
000120 9a 2f 3c bd 62 82 95 3d b6 02 55 3d d5 8a e6 bd
       -0.045943834 0.07300259 0.05200454 -0.11256949
000130 a4 53 11 3e e0 32 98 bc e9 76 b5 3c 25 d0 a7 bd
       0.14192063 -0.018578947 0.022151427 -0.08193997
000140 d2 5c be 3c 3e a5 10 3d 70 aa 5c 3d fe 31 d1 3c
       0.02323762 0.035313837 0.05387348 0.025536533
000150 49 68 4c bc d8 76 12 be 88 ed ae bd d5 3e 28 be
       -0.012476035 -0.14303148 -0.08541399 -0.16430219
000160 f5 75 a2 bc b6 9c e6 bd 54 71 c9 bd d7 bf ab bd
       -0.019831637 -0.11260359 -0.09836069 -0.083862
000170 d4 e5 65 bd 67 5f e4 3b a2 31 58 bd d9 7a b9 3c
       -0.056127384 0.0069693807 -0.05278171 0.022641586
000180 f5 1c 24 be 3c 6f 2f be 19 d3 90 bd c9 7d b5 3d
       -0.16026671 -0.17132276 -0.07071514 0.08861882
000190 d8 58 ab 3c dd 95 6f 3e 36 64 1c 3e 4b 93 fc 3c
       0.020916387 0.23397012 0.15272602 0.030831954
0001a0 00 c0 f1 3d f7 3d eb bc 90 30 b0 3d 07 b9 25 be
       0.11804199 -0.02871607 0.086030126 -0.16183864
0001b0 6f d3 59 3d cf 8b 9a bd b8 7c 9c 3d ad 12 e5 3d
       0.053180154 -0.075461976 0.07640976 0.11185203
0001c0 12 98 bc 3d 18 2a 15 3d 28 63 14 be cf 11 a7 3d
       0.092086926 0.036417097 -0.1449095 0.081576936
0001d0 c4 b5 9d 3d 76 bf f3 bd 43 6f 9e 3d b6 48 f9 3d
       0.07700685 -0.11901753 0.07736065 0.12172072
0001e0 01 ab da 3c 21 7e 9f bd cd b5 08 be a3 3c 37 3e
       0.02669287 -0.07787729 -0.13350601 0.17894225
0001f0 91 dd ec bb 59 25 04 3e b9 3b 3f 3e 3d ef 3d be
       -0.007228561 0.12904872 0.18675126 -0.18548293
000200 12 32 b6 3d 26 14 ac bd 79 e2 49 be e2 75 50 be
       0.08896269 -0.084022805 -0.19715299 -0.20357469
000210 a0 a8 06 3e ec 77 4a 3d f4 e8 a8 bd 13 f0 d1 bd
       0.13150263 0.049430773 -0.08247557 -0.10250869
000220 0f 9f 79 3d f6 9e ae bd 14 34 ce bd 88 5f 2f be
       0.060942706 -0.08526413 -0.10068527 -0.17126286
000230 ee e3 9d bd 86 b8 a3 bd 8e 63 14 be 35 27 48 bd
       -0.0770949 -0.079941794 -0.14491102 -0.048865516
000240 c6 a1 26 3d 8b 35 7f 3d 59 90 59 3e fa 67 89 bd
       0.040681623 0.062306922 0.2124647 -0.06709285
000250 70 8d 38 be 4a 03 d8 3d 41 d0 f8 3d 89 85 dd 3d
       -0.18022704 0.10547502 0.12149096 0.108164854
000260 37 19 a5 3c 62 ec 5b bd 55 73 ff bd df 99 c7 bd
       0.020153625 -0.05369223 -0.1247317 -0.097461455
000270 33 3c f0 3d ac a7 f9 bd da 89 5d 3d b5 cd 0e 3c
       0.11730232 -0.12190184 0.054086544 0.008716037
000280 0e 91 8d 3d be 9e 07 bd 8e 00 37 3e a1 39 36 bc
       0.069124326 -0.033110373 0.17871305 -0.011122138
000290 eb b0 0d 3d ba 63 ad bd 42 28 10 be 75 f4 2e be
       0.03459255 -0.08466287 -0.14077857 -0.1708544
0002a0 36 68 8c bd 35 79 23 3e 7c 56 87 3d dd c6 81 3d
       -0.06855814 0.15964206 0.066082925 0.06336758
0002b0 a9 38 3c be e5 3d 79 bd 6c a7 51 3d 4c 9e d5 bd
       -0.18380989 -0.060850043 0.051185057 -0.10430583
0002c0 ca 00 67 bd 08 0a 26 be 3b d2 a9 bc 42 dd db 3d
       -0.056397237 -0.16214764 -0.020730129 0.10735561
0002d0 77 e0 19 3e 55 ac 04 bc f6 85 c2 3d 2a a0 5c bd
       0.15027033 -0.008097728 0.09498207 -0.05386368
0002e0 c2 bf 46 bd 36 44 84 3d ea d3 9c 3d e7 a1 ca 3d
       -0.04852272 0.06458323 0.07657607 0.09894162
0002f0 85 2a 43 3e 16 68 dc 3d 05 41 4d bd 00 fc 0d 3d
       0.19059189 0.1076204 -0.050110836 0.034664154
000300 17 a0 b3 bc 9f 0c 20 be 25 77 05 be 7c 0d 89 bd
       -0.021926923 -0.15629815 -0.13033731 -0.06692025
000310 94 37 d0 bd dd 81 1b be 9c 7a 36 bc 6d cf 16 bd
       -0.10166851 -0.15186258 -0.011137631 -0.03681891
000320 86 f7 25 3d 45 67 f2 bc af f2 13 3e d5 37 17 3e
       0.04051926 -0.029590258 0.14448045 0.14767392
000330 ba bc b7 3b a4 cf 92 3d 51 10 46 3d c7 4e 1e bc
       0.0056072148 0.071685106 0.048355404 -0.009662337
000340 82 ba d8 3d bf b1 4a 3d 32 e6 16 3e 42 01 2c 3d
       0.105824485 0.049485918 0.1473625 0.041993387
000350 fa f9 45 3e c9 c9 ce bd 50 ca a8 bd 20 f9 c5 bd
       0.1933364 -0.10097081 -0.08241713 -0.096666574
000360 fa ae 1f bd d7 7a d3 bd be bb 17 bc b6 6a 0a 3e
       -0.03898523 -0.10326164 -0.00926107 0.1351727
000370 88 ea 33 3e 72 af f4 3d 76 06 2a bd 9e 30 27 3e
       0.17569935 0.11947526 -0.041510068 0.1632714
000380 6f 60 e5 3c 35 4d 96 3c 8f f2 75 3e e1 5a 1a bd
       0.028000085 0.018347362 0.2401831 -0.037684325
000390 85 f0 dc 3b 4a ea 03 3e 26 36 4a 3d 31 59 be 3c
       0.0067425393 0.12882343 0.049368046 0.02323589
0003a0 1e f8 17 3e b7 fe b5 bc 41 2c bf 3d b0 3b 9e bd
       0.14840743 -0.022216184 0.09334613 -0.07726228
0003b0 5c 14 5c bd 7d e0 ce bd 00 ee 04 3e c5 e3 d1 3d
       -0.053730354 -0.101014115 0.12981415 0.10248522
0003c0 6a 18 e1 3c 14 ea ef bd a5 df 26 3e 32 29 73 bb
       0.027477462 -0.11714569 0.16296251 -0.0037103412
0003d0 f3 57 b1 bd 4c e1 97 3d 02 77 c5 3d 40 05 e0 3d
       -0.08659353 0.07416019 0.096418396 0.10938501
0003e0 ed bb b9 3d 40 7b fa 3d ec 25 06 3c 59 be 85 3c
       0.09069047 0.12230539 0.008187752 0.016326116
0003f0 47 6e 9e 3d 97 1b 0c bd cf c3 d9 bc 99 71 4e 3e
       0.077358775 -0.034206 -0.026582627 0.20160522

sequential_3/gru_3/gru_cell/BiasAdd/ReadVariableOp/resource1 f4 [192]
000000 ec 30 8a bc 7c e4 8d bd 90 49 fe 3c 88 89 34 bb
       -0.01686903 -0.069283456 0.031040937 -0.0027547795
000010 80 97 bf 3d 8e 71 99 3d 92 19 e4 3c 0f 7f 9e 3c
       0.09355068 0.07492362 0.027844224 0.019347696
000020 b8 b5 fa 3d 6b da 77 3d c3 64 d7 bd 9e de ab bd
       0.12241691 0.060511034 -0.10517266 -0.0839207
000030 0f 88 e4 3d 4c 7d 42 bd 24 c3 b7 3d a6 a2 ff bc
       0.111587636 -0.047482774 0.08972767 -0.031205487
000040 e0 0a 39 bd 26 f8 79 bd 1a d0 aa bd 06 1e 80 bd
       -0.045176387 -0.06102767 -0.083404735 -0.062557265
000050 ab e6 62 3d 3b ef 7d 3d df 65 d5 3d 64 20 3d 3c
       0.055395763 0.061995726 0.10419821 0.011543367
000060 f9 5b 01 3d cc eb f1 bc 5c 70 25 3d c1 06 e0 bc
       0.031581853 -0.029531382 0.040390357 -0.02734697
000070 4b 51 43 3d 80 df 0e be 65 28 61 3c a7 5a f7 bc
       0.04768495 -0.13952446 0.013742541 -0.030194594
000080 34 f4 83 bd 9e f0 ec 3d 97 bb cd 3b b4 93 98 bb
       -0.064430624 0.115693316 0.006278466 -0.0046562795
000090 76 d9 f2 3d b8 41 40 be 15 76 ac bd ab a0 a1 3d
       0.11857884 -0.1877507 -0.0842096 0.07891973
0000a0 96 ca 04 bd ae 91 d5 3d 46 2f bf ba 07 fb af 3d
       -0.032419764 0.10428177 -0.0014586232 0.085928015
0000b0 13 ee fe bd 72 95 23 3b da f2 3d bc 16 b2 fb bc
       -0.12447753 0.0024960903 -0.011593545 -0.030724566
0000c0 c8 2e be 3d 24 27 2f bc f2 a2 d0 bd 68 2a 86 3d
       0.092862666 -0.010690484 -0.10187329 0.06551057
0000d0 0e 33 01 be 80 d1 c4 bc f4 a3 32 3d 64 1f a0 3d
       -0.12617132 -0.024025679 0.04361339 0.07818487
0000e0 02 90 cf 3d 04 ec e5 3c e3 db 20 be 4d a3 8c 3d
       0.10134889 0.028066643 -0.1570888 0.06867085
0000f0 c0 a0 25 3d ab 43 0b bd e3 ed bc 3c 9c bb 99 bd
       0.040436506 -0.03400008 0.023062652 -0.07506487
000100 3d f2 b2 bd 7a 9f ea 3b 0f 93 46 bd 67 b9 53 bd
       -0.087376095 0.0071601244 -0.04848009 -0.051690485
000110 5f 10 7b 3d 9b c9 bb bc ff 46 1e bc 16 c8 2e bd
       0.06129491 -0.022923281 -0.0096604815 -0.042671286
000120 7b 5f 12 3d ca 04 2c bc 99 1c e7 bc 65 2d 88 bd
       0.03573559 -0.010499189 -0.028211879 -0.06649283
000130 43 28 66 bd 06 c6 f3 ba dc 40 c4 3b 53 f5 25 bc
       -0.05619074 -0.0018598444 0.005989177 -0.010129291
000140 12 1a a6 3c 61 ff 9d bd 34 9d 65 3d 27 6f 90 bd
       0.020276103 -0.07714725 0.056058124 -0.070524506
000150 78 15 b5 bc d2 b8 9a bd c2 44 be bd 2c 43 29 be
       -0.022104964 -0.07554783 -0.09290458 -0.1652953
000160 54 a0 59 3b 37 0d 4a bd 3d c9 d8 3c 85 1d 61 bd
       0.0033207135 -0.04932901 0.026463145 -0.054959793
000170 80 1f 86 bd 81 1a 94 bc cd ac 6d 3c 3d c0 e9 bc
       -0.06548977 -0.018079044 0.014506531 -0.02853405
000180 5b d9 41 bb c7 b6 cc 3c cb 95 04 bd 5f 35 cd bb
       -0.0029579017 0.024989499 -0.032369416 -0.006262466
000190 d8 40 d1 3c f9 e5 a0 3d 5a f6 a8 bc 83 58 a9 bd
       0.025543615 0.07856364 -0.020625282 -0.082688354
0001a0 e4 de 94 3c 2a f6 2a bd d5 a3 77 3c 1d 05 58 3d
       0.018172689 -0.041738667 0.015114744 0.05273925
0001b0 22 32 20 3d c8 c2 dd 3b 9e 96 47 3b e5 db a8 3c
       0.03911031 0.0067676045 0.0030454765 0.020612666
0001c0 06 a0 03 3e 03 a0 9b bd a6 7c 44 bd 8b 97 5d bc
       0.12854013 -0.07598879 -0.047970437 -0.0135249
0001d0 a4 9e e3 bc 9a b8 d4 bc 8c 48 34 bc 63 81 07 3d
       -0.027785607 -0.025966931 -0.011003625 0.033082377
0001e0 c8 1c 9d 3d 02 20 c5 bb 79 c2 7c 3b bf 31 63 bc
       0.07671505 -0.0060157785 0.0038568063 -0.013866841
0001f0 63 9a 18 3d 2c 5f 9d bb e2 07 56 3c c9 3a 2f 3d
       0.03725661 -0.004802605 0.013063403 0.04278067
000200 3c 46 e2 3c ca 00 05 bd 27 5b 15 bc fe 32 16 bd
       0.027621381 -0.032471456 -0.009115971 -0.036669724
000210 62 74 57 bd 74 69 3d 3d 85 e4 8a 3d 7a 68 52 3c
       -0.052601226 0.046243146 0.06781868 0.012842292
000220 dc 23 2c bd 8c 5d 82 bc 08 31 53 bc 22 65 8f 3c
       -0.042026386 -0.015913747 -0.012890108 0.017504279
000230 ce 9a 1d bc de 08 11 bc 08 32 a8 bc 87 cf a5 3b
       -0.009619428 -0.008852212 -0.02053167 0.0050601396
000240 49 5e 36 3d 19 fe 78 bc 10 0f 71 3c bc 27 c2 bc
       0.04452351 -0.0151973 0.014713064 -0.023700587
000250 a4 5f 80 bb e9 36 2a 3d 93 ed e7 bc dd ab 21 3d
       -0.0039176513 0.041556273 -0.028311526 0.039470542
000260 2b 51 5a 3c ac eb a8 3c 6b cd 24 bc 39 ce 3c 3d
       0.013325016 0.02062019 -0.010058741 0.046095107
000270 3f 7b 9a bd aa 14 55 3d ee b1 90 3a 40 f0 6b bc
       -0.075430386 0.05202166 0.0011039355 -0.014400542
000280 c0 20 87 bd 68 0b 03 bd 68 19 32 bd 02 a5 27 bd
       -0.065980434 -0.0319933 -0.04348126 -0.040928848
000290 89 88 0f bd c9 5c f2 3c 47 b7 71 3b e9 a9 67 3d
       -0.03504232 0.029585259 0.0036882923 0.056558523
0002a0 fe 50 02 b9 96 27 a3 bc 38 1b 77 3d 4c a1 8f bd
       -0.00012427938 -0.019916337 0.060328692 -0.07013187
0002b0 11 72 7c 3d dc 46 13 bd b7 9c 87 3d 20 4d 35 3c
       0.06163222 -0.03595625 0.06621688 0.011065751
0002c0 c0 a9 0a 3d 16 ae 34 bb 4d 25 ac 3c 0e 79 2a 3d
       0.033853292 -0.0027569584 0.02101388 0.041619353
0002d0 6d 78 1b 3d a9 f0 27 3d c2 ea 8a 3c 23 f7 22 bd
       0.037956644 0.041000996 0.016957644 -0.03978647
0002e0 cd 4c 2d bc 84 ee 40 bc db b3 37 3d ca 9b 2d 3b
       -0.010577393 -0.011775617 0.044849258 0.0026490563
0002f0 77 c7 b5 3c 38 10 35 bd 03 af f5 3c 21 e0 16 3d
       0.022189839 -0.04420492 0.029990679 0.03683484

sequential_3/gru_3/while/gru_cell/MatMul f4 [192, 50]
000000 33 9c 8c 3c 0a d2 4e bd 40 e0 77 3c 1f d0 8f bc
       0.017164325 -0.050493278 0.015129149 -0.017555295
000010 37 b8 01 3e 97 ae 47 3e 24 71 bf bc 96 b5 1b be
       0.12667929 0.19500194 -0.02336938 -0.15205988
000020 f2 1a 17 be 41 6f c7 3d 9f 27 09 be 1a 81 0a bd
       -0.14756373 0.09738017 -0.1339402 -0.033814527
000030 ca d8 20 3e e1 fa 5b 3d 8c 8a c2 3b 2b 45 d2 3d
       0.15707698 0.053706054 0.005936926 0.10267099
000040 b4 25 25 bd 56 f8 2f bd f1 7c 22 bd 50 66 19 be
       -0.04031916 -0.04296144 -0.039669935 -0.14980435
000050 68 85 f2 3d cd be 33 bd 3d 2f d8 3c 06 36 b2 bd
       0.118418515 -0.043883134 0.026389712 -0.087017104
000060 a5 e8 68 3d 9e 56 a3 bd 0a 1f 08 bd f3 0d 22 3e
       0.056862492 -0.07975505 -0.033232726 0.15825634
000070 39 d5 88 bd 45 34 0a bc f5 b6 6d 3c 7a 64 20 be
       -0.06681294 -0.008435314 0.014508952 -0.15663329
000080 af 74 bc bd 89 7c df 3d db d3 3b be 33 65 3b be
       -0.09201943 0.10912425 -0.18342535 -0.18300323
000090 f1 48 f3 bd 60 17 62 3d 9c ab 7e 3d cc 93 20 3e
       -0.11879147 0.055198073 0.06217538 0.1568138
0000a0 b6 bf 76 3e a5 3c a7 3d 2f 12 83 be 46 4c 9b 3d
       0.2409657 0.08165864 -0.2559981 0.075829074
0000b0 cd 02 68 bd 8d c3 19 3e 79 42 a7 bd bc 4e 85 3c
       -0.056643296 0.15016003 -0.081669755 0.016272895
0000c0 5d 4f 2c be da ec 20 be 18 b2 02 3e 01 b5 d6 3d
       -0.1682715 -0.15715352 0.1276325 0.104837425
0000d0 66 89 23 3e f8 b7 88 3d 86 24 b1 3d 57 67 5d be
       0.15970382 0.06675714 0.086495444 -0.21621452
0000e0 a0 d1 1c be 99 44 ab bb e3 a5 83 bc 3f 3c 89 3d
       -0.1531434 -0.0052266833 -0.016070312 0.06700944
0000f0 fc 7e 00 3e aa 99 8b bc 63 80 51 3c 06 51 06 3c
       0.1254844 -0.017041046 0.012786957 0.008198028
000100 39 f4 a0 bd 36 e2 49 3d af 02 fd 3c 60 5c 3e 3e
       -0.07859082 0.049287997 0.030885069 0.18589926
000110 32 7a 8a 3e bf 1b 58 3e 50 75 07 be 57 8e 37 3e
       0.27046353 0.21104334 -0.13228345 0.17925392
000120 6e 0b 79 bd 48 ae 15 3e c8 49 2a bd 0e ae 0c bc
       -0.060801916 0.14617264 -0.04157427 -0.00858642
000130 e8 ef 8b be 77 95 88 3e d1 5d b1 3d 13 70 61 be
       -0.2733147 0.26676533 0.08660472 -0.22015409
000140 a4 eb 09 bd 12 fd d9 3d 0d fe 9b 3d 3d 89 96 3d
       -0.03367199 0.106439725 0.07616816 0.07350395
000150 3e 8d c4 3d f7 74 86 3d cf 64 f6 3d f7 3e 8d 3e
       0.09597252 0.06565278 0.120309465 0.275871
000160 f1 5b 96 3e ab 71 b4 3d 42 54 0b bd 16 87 06 bd
       0.2936702 0.08810743 -0.0340159 -0.03284367
000170 f8 91 37 bb f8 a9 fe bb fc ad f3 3d 2c a3 88 bd
       -0.0028010588 -0.0077717267 0.11898419 -0.066717476
000180 63 ce c8 3d 3a 32 14 bd 34 cf 3f bd d9 f2 5e 3e
       0.0980499 -0.036180712 -0.046828464 0.21772327
000190 bd d1 f1 bd 05 e1 e9 3c 00 86 36 bd 36 bc 22 be
       -0.118075825 0.02854968 -0.044561386 -0.1589211
0001a0 a9 b4 e3 3d 18 9e 8a 3d eb 87 25 be 69 df 9b bd
       0.111184426 0.06768435 -0.1616513 -0.076109715
0001b0 0e f6 09 3d a0 44 5b 3c 8e 03 b7 3d 8b 13 2a be
       0.03368192 0.013383061 0.08936225 -0.16609018
0001c0 e8 1c ba 3c 07 6c 9d 3d 30 0c 21 3e 1a e8 0d 3e
       0.022718862 0.0768662 0.15727305 0.13858071
0001d0 88 57 9d bd 4f 13 19 bc de c1 99 bd d1 1e 0b 3e
       -0.07682711 -0.009342982 -0.0750768 0.13585974
0001e0 4f 85 8b be 17 69 f8 3d 41 23 40 3d de ce 51 be
       -0.27250144 0.12129419 0.04690862 -0.2048907
0001f0 ea 7c 72 be 21 e8 cf 3d b3 37 0e 3d 63 47 17 3d
       -0.23680463 0.10151697 0.034721088 0.036933314
000200 b7 62 f8 3d e7 b5 14 3e ef 99 5b bd ef 8c 0f bc
       0.12128203 0.14522515 -0.0536136 -0.0087616285
000210 24 c9 95 3d 37 51 1f 3d 4a e8 45 be a7 f1 15 bd
       0.07313755 0.038895812 -0.19326892 -0.03660741
000220 9c 70 ae 3d 82 03 10 be db 9d 9b ba d4 ea be bd
       0.08517572 -0.14063838 -0.0011872606 -0.09322134
000230 fd 5b 2e 3d 2f 44 04 3e ef e4 2e 3e 17 a0 ec 3d
       0.042568196 0.12916635 0.17079519 0.11553972
000240 e0 8f 45 bd 11 62 36 be 54 f6 46 3d c3 d8 a3 3c
       -0.048232913 -0.17810847 0.04857476 0.020000821
000250 ed 1d 5f 3c 60 09 10 3e 35 f1 d8 3d 38 d8 af 3d
       0.013617975 0.14066076 0.105928816 0.08586162
000260 4d f0 e4 bc 1e 6f 1e be 24 ce 5f 3e ea 8b 21 3e
       -0.027946616 -0.15472075 0.2185598 0.15776029
000270 9f 2a 8a bd d7 52 46 bd 7b da dd bd cc 26 3f be
       -0.067464106 -0.048418846 -0.108326875 -0.18667144
000280 15 cd a6 3d af a6 c3 3d 4f 77 14 bc c8 ac c6 3d
       0.08144585 0.09553277 -0.0090616485 0.09700924
000290 04 66 81 3d 07 00 5a 3e 55 ab 27 bd 36 ba 34 be
       0.06318286 0.21289073 -0.04093488 -0.17649159
0002a0 a4 66 97 bd d3 39 65 3e 33 cc 32 3e 73 b1 08 3b
       -0.07392624 0.2238534 0.17460708 0.002085772
0002b0 0c e0 f2 bd b0 a8 3c be ec a3 0c 3e 55 10 30 be
       -0.1185914 -0.18423724 0.13734406 -0.1719373
0002c0 b3 64 71 3e b1 b0 d6 bd 21 60 ac 3d aa c1 be 3d
       0.2357357 -0.1048292 0.08416773 0.09314282
0002d0 7e dd ee bc 1f c7 04 be 6e 63 cd bd be 41 1c 3d
       -0.02915835 -0.12966584 -0.1002873 0.038148634
0002e0 6f 86 be 3c 87 cd 04 be 27 2e a2 bd a4 90 ff 3c
       0.023257462 -0.12969027 -0.07918959 0.0311969
0002f0 8c a5 01 3e 6a c1 dd 3c 95 68 69 3b 09 2f bb 3d
       0.12660807 0.027069766 0.0035615314 0.091398306
000300 1b 10 8e bc 48 be 4a 3e 90 62 4d 3d ef 1d 2b 3e
       -0.017341664 0.19799149 0.050142825 0.16710638
000310 78 15 5f be d3 b2 13 3e b1 94 b3 bd ee e0 e6 3d
       -0.21785533 0.14423685 -0.08768595 0.11273371
000320 ad c9 0d 3e 17 00 89 3d 68 7c 3e 3d f4 da 1b 3c
       0.13846464 0.0668947 0.04650536 0.009512652
000330 06 b0 13 bd e5 58 9b be bc e7 74 bc f3 32 6a 3e
       -0.03605654 -0.3034126 -0.014947828 0.22870998
000340 79 11 6c bc db fc 6b 3d b3 fa 27 3e 3f 2a 05 3e
       -0.014408463 0.05761419 0.16404228 0.13004397
000350 3a 6d 44 3e 8e 35 df 3c f2 59 d1 3d c8 be 46 bd
       0.19182292 0.027247217 0.10222234 -0.048521787
000360 f5 be 3f 3e b6 0a dd 3d 55 5a 76 3d 30 bd f2 bd
       0.18725188 0.107930586 0.06014474 -0.11852491
000370 a6 61 78 be c5 be 2f bd 88 68 56 3d 04 29 3d 3d
       -0.24256 -0.04290654 0.052345783 0.046181694
000380 84 a2 14 bd 3e 32 fc bc 71 76 9e be 7c ad ab 3d
       -0.0362878 -0.030785676 -0.3094974 0.08382699
000390 2f dc 2d bd 04 22 a0 be 9d a6 06 3c d8 02 9f bd
       -0.04244631 -0.31275952 0.008218435 -0.07764214
0003a0 22 ba c2 3d 21 d0 34 bd 28 5e 58 3d af 7d 39 3e
       0.09508158 -0.0441438 0.05282417 0.1811435
0003b0 a0 ce 14 bc 41 93 1b bb dc 58 32 3e 91 ef 6a 3d
       -0.009082466 -0.0023738893 0.1741671 0.057357375
0003c0 bd 1d 01 be 32 01 51 bd ab 29 66 3e 27 3f 0d be
       -0.12609 -0.05102653 0.22476833 -0.13793622
0003d0 ba 73 a3 3d e0 ab 99 bc 0e 86 be 3d 6b 62 4f 3e
       0.079810575 -0.018758714 0.09302913 0.20252387
0003e0 7a 0d 32 3d e6 ee 8a 3e 32 3d 47 3e e2 0a ea bd
       0.043469884 0.2713539 0.19456938 -0.11427857
0003f0 fe 61 c8 bd 7c 06 98 3d 19 34 17 be cb 60 9d be
       -0.097843155 0.07423112 -0.14765967 -0.3073791
